train/1/save_model.pth (torch, 7718 bytes, 6 tensors)

lstm.weight_ih_l0 f4 [64, 1]
-2.4344413 0.21175838 -0.56278604 -0.4729682 -0.5503151 -0.0683175 0.64059234 -0.53031945
-0.9453748 0.030682746 -0.0020729406 -0.39100954 -0.0827402 1.2112123 -0.09972389 -0.77446616
-1.7914449 0.43113607 -0.008180803 -0.22180645 0.17684846 0.28464156 0.5878338 0.79477674
-0.4074063 1.1109214 0.13965277 -0.16942096 0.15021569 0.68543184 0.50474465 -1.9328679
1.6376493 -0.5313501 0.9098945 0.09214673 -0.3908955 0.44752166 0.47671887 -0.99492574
0.76292783 -0.18430102 0.50691086 -0.56833315 -0.68509245 -0.63622814 -0.42132112 -1.8029258
-2.7547977 0.5137899 0.01613018 -0.67189115 -0.5139288 0.18171753 0.65122616 0.55428916
-0.44766393 0.18713766 0.38754803 -0.008936116 0.19818033 0.97644603 -0.02456824 -1.1376721
00000000: e3cd 1bc0 30d7 583e bf12 10bf e328 f2be
00000010: 73e1 0cbf 0cea 8bbd dcfd 233f 04c3 07bf
00000020: 1504 72bf 625a fb3c 2cda 07bb 6732 c8be
00000030: b273 a9bd 0109 9b3f 0a3c ccbd 6a43 46bf
00000040: 114e e5bf debd dc3e c608 06bc 3b21 63be
00000050: c317 353e 8abc 913e 477c 163f 7d76 4b3f
00000060: 8f97 d0be ac32 8e3f 2301 0f3e b07c 2dbe
00000070: 24d2 193e 7678 2f3f f236 013f 3768 f7bf
00000080: 7e9e d13f 8f06 08bf d9ee 683f 6db7 bc3d
00000090: 7423 c8be 8f21 e53e 7f14 f43e 74b3 7ebf
000000a0: 3d4f 433f 68b9 3cbe e9c4 013f 487e 11bf
000000b0: 3862 2fbf d9df 22bf 67b7 d7be 46c6 e6bf
000000c0: 9b4e 30c0 bc87 033f 7023 843c 0f01 2cbf
000000d0: d690 03bf 2914 3a3e c2b6 263f e5e5 0d3f
000000e0: 3534 e5be 04a1 3f3e b26c c63e c968 12bc
000000f0: c9ef 4a3e 5ef8 793f 5543 c9bc 3d9f 91bf

lstm.weight_hh_l0 f4 [64, 16]
-0.5526311 1.1023728 -0.137241 0.23877129 0.8640992 -0.17216846 0.74535346 0.5781117
-0.25714946 0.70949155 0.052298915 -0.19184856 0.60657936 -0.2060284 0.59403557 1.1975914
0.38344023 -0.29301897 0.54826826 -0.3075714 -0.53892857 -0.7330364 0.39596578 -0.8381984
0.6447699 -0.17180367 -0.0750941 0.011637443 -0.54490876 -0.64545506 -0.26441285 -0.15452883
-0.3040488 0.45798472 -0.56296235 -0.5485196 0.5594084 -0.5831349 0.04219938 0.21847773
-0.7503908 0.1868664 -0.3147563 0.39921445 0.7516999 0.59837985 0.64316756 0.48682532
-0.19833352 -0.9646175 0.47538862 -0.79578984 -0.29771468 -0.11861917 -0.42103922 0.61925375
0.18143906 -0.69329435 -0.64598167 0.89573014 -0.18535341 0.6209674 -0.51736677 -0.5711127
-0.43739498 -0.16519456 -0.19612207 -0.10485961 0.6054773 -0.35219646 0.86047643 -0.41460493
-0.30528215 0.02743795 0.47802985 -0.16612077 0.4433095 -0.47560936 0.57613635 -0.013375659
0.5728914 0.5944829 -0.6667067 -0.39902726 0.68066853 0.18361843 -0.23515652 0.712941
-0.23917662 -0.002824101 -0.25373286 0.009955224 0.93266994 -0.11719322 0.082878225 -0.052627355
0.40017498 0.074821964 0.08845896 -0.3564478 0.09715851 -0.46021917 0.20797196 -0.1645818
-0.06921777 0.52215976 0.5326789 -0.8832583 0.09093527 -0.96675277 0.3486404 -1.3498106
-0.49457178 0.10014074 -0.14752439 0.017656256 0.4633632 -0.78542364 1.6014069 -0.2524836
-0.10297063 -0.24043503 0.3043082 -0.5366903 -0.017893381 -1.327057 0.44798476 0.37375364
-0.07506113 -0.23377043 -0.39640447 -0.2184808 0.085176386 -0.12077723 0.15973346 -0.5423995
0.18084483 0.19953837 0.39267632 -0.45769253 0.52673185 -0.6216871 0.31778023 0.08912647
1.1522073 -0.55673224 0.47924304 -0.7484255 -0.5186886 -0.8692985 -0.11439465 -0.24621941
0.7151569 -0.23699522 -0.49064067 0.353348 -0.49631336 -0.19219252 -0.37184337 -0.70122117
0.52473694 -0.42987236 0.6180279 -0.16365257 -0.41217554 -0.41480502 -0.021830397 0.30227625
0.24089302 -0.4341943 -0.29152763 0.1379009 0.09753728 0.021067211 -0.7126571 -0.9385551
0.0400539 -0.2917198 0.74476844 -0.81643146 0.17183982 -0.09292275 0.20812486 -0.10642129
0.042347733 -0.4913959 -0.067950614 0.5236656 0.37797207 -0.16761641 -0.6083361 -0.08237382
0.08688807 0.15840362 -0.13602896 0.5482293 0.03359995 -0.17808102 0.7937329 -0.32745963
-0.22979334 0.398346 0.39228606 -0.32556552 -0.1141904 -0.33112168 0.6391204 0.49513927
-0.2139911 -0.6038511 0.2457481 -0.011637995 -0.17761719 -0.0025670999 0.022327838 -0.4307048
-0.16863187 -0.42293662 -0.28011033 -0.13865161 -0.06338938 -0.18212007 -0.3907365 -1.192481
0.1978211 -0.70796156 0.48538902 -0.7061299 -0.18203238 -0.8017828 -0.09402242 -0.50555515
0.22680762 -0.3637634 0.14680749 0.06363845 -0.062287346 0.115638986 -0.5387279 -0.73567075
-0.65496016 -0.6963246 -0.74901164 -0.2211905 -0.14289092 0.2562355 -0.43321037 -0.18553704
-0.54467076 -0.011366287 -0.49733102 0.20616971 0.6964824 0.73662657 -0.3050385 -0.08575549
00000000: 3b79 0dbf 8d1a 8d3f e888 0cbe 7680 743e
00000010: 9b35 5d3f ee4c 30be 7ccf 3e3f 21ff 133f
00000020: 18a9 83be 3da1 353f 6337 563d f373 44be
00000030: c948 1b3f 1cf9 52be b712 183f ad4a 993f
00000040: 4752 c43e 9506 96be 4f5b 0c3f 007a 9dbe
00000050: 39f7 09bf 46a8 3bbf 07bc ca3e 2c94 56bf
00000060: a40f 253f 4ded 2fbe efca 99bd f9aa 3e3c
00000070: 247f 0bbf 8b3c 25bf 1f61 87be ce3c 1ebe
00000080: 49ac 9bbe f97c ea3e 4d1e 10bf c86b 0cbf
00000090: 6435 0f3f 5448 15bf 42d9 2c3d a0b8 5f3e
000000a0: 9d19 40bf e859 3f3e bd27 a1be d665 cc3e
000000b0: 686f 403f 6c2f 193f a1a6 243f 2b41 f93e
000000c0: f117 4bbe 2cf1 76bf 2366 f33e e2b8 4bbf
000000d0: 0f6e 98be 9bee f2bd 7492 d7be 6a87 1e3f
000000e0: 29cb 393e bd7b 31bf 0e5f 25bf 924e 653f
000000f0: 49cd 3dbe b8f7 1e3f 2672 04bf 7134 12bf
00000100: 3cf2 dfbe c328 29be 39d4 48be a3c0 d6bd
00000110: 8f00 1b3f 1853 b4be 2f48 5c3f 1947 d4be
00000120: f14d 9cbe 8dc5 e03c 54c0 f43e 901b 2abe
00000130: 76f9 e23e 1283 f3be ac7d 133f 9425 5bbc
00000140: 03a9 123f 0830 183f 4aad 2abf 4d4d ccbe
00000150: 4b40 2e3f 7806 3c3e dfcc 70be 4d83 363f
00000160: b7ea 74be 8d14 39bb 46e9 81be 3c1b 233c
00000170: 75c3 6e3f 0003 f0bd 0fbc a93d c88f 57bd
00000180: bce3 cc3e 423c 993d f929 b53d 5380 b6be
00000190: 0afb c63d d9a1 ebbe 9af6 543e 2288 28be
000001a0: 0cc2 8dbd 43ac 053f a55d 083f 371d 62bf
000001b0: 453c ba3d 1c7d 77bf ff80 b23e 98c6 acbf
000001c0: 8338 fdbe 9716 cd3d a210 17be daa3 903c
000001d0: f13d ed3e 8611 49bf e7fa cc3f 8845 81be
000001e0: 44e2 d2bd 9a34 76be 49ce 9b3e 8964 09bf
000001f0: 2495 92bc 01dd a9bf 425e e53e a35c bf3e
00000200: a6b9 99bd 8461 6fbe 87f5 cabe 6eb9 5fbe
00000210: f570 ae3d 0d5a f7bd 2b91 233e b2da 0abf
00000220: 632f 393e c953 4c3e df0c c93e ad56 eabe
00000230: e6d7 063f e326 1fbf 17b4 a23e f087 b63d
00000240: 877b 933f 0186 0ebf 585f f53e d098 3fbf
00000250: c7c8 04bf 598a 5ebf be47 eabd f120 7cbe
00000260: 8614 373f e0ae 72be 4135 fbbe 07ea b43e
00000270: c91c febe 1ece 44be 4162 bebe 3b83 33bf
00000280: 2955 063f 3b18 dcbe 1437 1e3f 8a94 27be
00000290: ac08 d3be 5361 d4be a9d5 b2bc f4c3 9a3e
000002a0: a9ac 763e b74e debe 1c43 95be e535 0d3e
000002b0: a0c1 c73d 2595 ac3c b270 36bf 2645 70bf
000002c0: 8f0f 243d 4c5c 95be 25a9 3e3f a701 51bf
000002d0: c7f6 2f3e 484e bebd af1e 553e 68f3 d9bd
000002e0: d174 2d3d 3e98 fbbe b129 8bbd f30e 063f
000002f0: 8e85 c13e a3a3 2bbe eabb 1bbf 9bb3 a8bd
00000300: 5ff2 b13d 8f34 223e 2d4b 0bbe c158 0c3f
00000310: 1aa0 093d df5a 36be 1432 4b3f caa8 a7be
00000320: f24e 6bbe 02f4 cb3e b8d9 c83e 86b0 a6be
00000330: a8dc e9bd c888 a9be 659d 233f e582 fd3e
00000340: 7c20 5bbe fc95 1abf 64a5 7b3e 4aad 3ebc
00000350: 48e1 35be ca3c 28bb dfe8 b63c 5785 dcbe
00000360: d5ad 2cbe 268b d8be 9f6a 8fbe b0fa 0dbe
00000370: 4bd2 81bd af7d 3abe 9d0e c8be 38a3 98bf
00000380: 9d91 4a3e f83c 35bf e984 f83e eec4 34bf
00000390: b266 3abe a341 4dbf d48e c0bd 106c 01bf
000003a0: 4240 683e 323f babe b454 163e e054 823d
000003b0: 0421 7fbd 22d4 ec3d 12ea 09bf eb54 3cbf
000003c0: 78ab 27bf 5442 32bf 3abf 3fbf c37f 62be
000003d0: ff51 12be 4d31 833e c0cd ddbe 6cfd 3dbe
000003e0: 8b6f 0bbf aa39 3abc 2ca2 febe 271e 533e
000003f0: ac4c 323f 8f93 3c3f 022e 9cbe 93a0 afbd

lstm.bias_ih_l0 f4 [64]
-0.077620484 -0.2817868 0.439139 -0.58381885 -0.21201469 -0.6559555 -0.2784484 0.09638783
-0.25981796 -0.79355353 0.16250443 -0.55112433 0.03490847 0.26541802 -0.48365718 0.075095154
0.015789662 -0.033631444 0.668308 -0.42768115 0.02403846 -0.48122293 0.09752555 0.2822785
0.31709397 0.03328497 -0.1562637 -0.22531247 0.0119085945 0.39089784 -0.25974876 -0.0977347
0.13982973 0.06253069 -0.18017067 -0.18853801 0.22380127 -0.1041488 0.07555498 -0.11256852
0.08871925 0.121653266 0.18913083 0.13584934 0.09345737 0.04697909 0.028792968 0.30939236
-0.10797188 0.12570193 0.09545591 -0.8892221 -0.5983971 -0.8638127 -0.30474386 0.13738303
-0.04349362 -0.49403682 -0.17368574 -0.9209216 0.012618106 0.014292771 -0.08547589 -0.009482819
00000000: 7df7 9ebd 5c46 90be d4d6 e03e 2775 15bf
00000010: 611a 59be b3ec 27bf ca90 8ebe fc66 c53d
00000020: dc06 85be 5326 4bbf 9067 263e 7c16 0dbf
00000030: 2ffc 0e3d dfe4 873e eaa1 f7be 7dcb 993d
00000040: 5259 813c 20c1 09bd 3c16 2b3f 06f9 dabe
00000050: 4eec c43c da62 f6be 7abb c73d cf86 903e
00000060: 245a a23e d255 083d 9703 20be 50b8 66be
00000070: 441c 433c c323 c83e cafd 84be 2129 c8bd
00000080: 862f 0f3e 1710 803d a97e 38be 1c10 41be
00000090: 292c 653e f74b d5bd 92bc 9a3d 538a e6bd
000000a0: 70b2 b53d 5925 f93d 83ab 413e 171c 0b3e
000000b0: 9466 bf3d 256d 403d 3bdf eb3c ad68 9e3e
000000c0: 5c20 ddbd 02b8 003e 637e c33d 0fa4 63bf
000000d0: 8d30 19bf d422 5dbf 6307 9cbe 23ae 0c3e
000000e0: 5e26 32bd 65f2 fcbe adda 31be 85c1 6bbf
000000f0: 2cbc 4e3c 3a2c 6a3c fc0d afbd d35d 1bbc

lstm.bias_hh_l0 f4 [64]
0.056357816 -0.23551817 0.10360672 -0.6305993 -0.15931581 -0.96905154 -0.27739888 0.024715118
-0.1559344 -0.39133286 -0.023358963 -0.53774536 0.13651471 0.45422727 -0.39630315 0.10044827
-0.20043887 -0.019644208 0.6194856 -0.17336833 0.03550852 -0.5618555 -0.21539545 0.28617236
0.25201806 0.13906202 0.27348503 -0.16415668 0.065435976 -0.034235485 -0.097123094 -0.19127156
-0.17188011 0.16987352 -0.016281903 0.102099694 0.10349526 -0.076241575 0.21963578 -0.020906651
-0.16971909 0.18272436 -0.08471501 -0.14292845 0.3458893 -0.0717139 0.2892563 0.21880014
-0.32583526 -0.08551126 0.30194035 -0.7971974 -0.29935193 -0.8708323 -0.101969145 0.44174945
-0.5221455 -0.56747043 -0.22588484 -0.5294282 -0.02155494 0.04325756 -0.33650523 0.042888183
00000000: 74d7 663d ad2b 71be c32f d43d f56e 21bf
00000010: af23 23be c313 78bf 3a07 8ebe 5c77 ca3c
00000020: 44ad 1fbe c85c c8be 4c5b bfbc aea9 09bf
00000030: 83ca 0b3e 7a90 e83e 3fe8 cabe d3b7 cd3d
00000040: d93f 4dbe e4ec a0bc 9c96 1e3f 7887 31be
00000050: 6271 113d c3d5 0fbf a090 5cbe 2f85 923e
00000060: 8308 813e 4666 0e3e 3b06 8c3e b018 28be
00000070: 4c03 863d 823a 0cbd 79e8 c6bd b1dc 43be
00000080: 5701 30be 53f3 2d3e a061 85bc a519 d13d
00000090: 53f5 d33d 8b24 9cbd 34e8 603e 6d44 abbc
000000a0: d7ca 2dbe 181c 3b3e 107f adbd d65b 12be
000000b0: 6718 b13e bdde 92bd 6719 943e 250d 603e
000000c0: e1d3 a6be 8720 afbd ed97 9a3e 2115 4cbf
000000d0: a844 99be deee 5ebf 33d5 d0bd fc2c e23e
000000e0: 54ab 05bf be45 11bf 5b4e 67be 9b88 07bf
000000f0: fc93 b0bc d72e 313d 6a4a acbe 85ab 2f3d

fc.weight f4 [4, 16]
0.2855229 -0.08410259 0.22989881 0.35698247 -0.005588234 -0.12865174 -0.13099642 -0.0064239004
-0.1053405 -0.08628989 -0.057904698 -0.09200711 -0.017646749 0.0039481465 -0.056873284 -1.3802918
0.15031621 -0.39197367 0.018774148 0.5265931 0.285934 -0.0072225193 -0.1663725 -0.12315875
-0.04405128 -0.09576356 0.0034121124 -0.051607434 -0.04758364 0.03068604 -0.0010507538 -1.2308294
-0.09015035 -0.306758 -0.20281605 0.17425783 0.5104286 0.29162696 -0.18380862 -0.1423279
-0.12645566 -0.0013101879 -0.033509042 -0.00047922615 -0.0009168815 0.0047926563 0.004113424 -1.0452698
-0.49644455 -0.05307619 -0.17913136 -0.08444291 0.305552 0.40747395 0.09606005 -0.24336955
-0.13199906 -0.021220172 0.04734449 -0.067411974 0.05035941 0.035757568 -0.04003788 -0.8367713
00000000: 0f30 923e fb3d acbd 986a 6b3e 68c6 b63e
00000010: 811d b7bb 48bd 03be ed23 06be 957f d2bb
00000020: c3bc d7bd c1b8 b0bd 7a2d 6dbd 396e bcbd
00000030: ea8f 90bc 745f 813b f6f3 68bd 67ad b0bf
00000040: 7eec 193e c6b0 c8be 3ecc 993c cece 063f
00000050: f165 923e e2aa ecbb 8d5d 2abe a83a fcbd
00000060: 1d6f 34bd af1f c4bd bf9d 5f3b 5162 53bd
00000070: 10e7 42bd 4a61 fb3c 72b9 89ba d18b 9dbf
00000080: bfa0 b8bd 620f 9dbe 03af 4fbe a570 323e
00000090: 73ab 023f 2150 953e 5438 3cbe 68be 11be
000000a0: 987d 01be 9cba abba c740 09bd a540 fbb9
000000b0: e05a 70ba b70b 9d3b e7c9 863b 67cb 85bf
000000c0: fb2d febe 6b66 59bd 366e 37be 68f0 acbd
000000d0: 5071 9c3e 6da0 d03e 22bb c43d de35 79be
000000e0: c32a 07be edd5 adbc 4cec 413d 4a0f 8abd
000000f0: ab45 4e3d 8776 123d c3fe 23bd a536 56bf

fc.bias f4 [4]
0.44831818 0.4330985 0.41650277 0.39754298
00000000: f689 e53e 16bf dd3e da3f d53e c18a cb3e
